…
ormalization . model = keras.models.Sequential([ keras.layers.Flatten(input_shape=[28, 28]), keras.layers.BatchNormalization(), keras.layers.Dense(300, activation=&quot;relu&quot;), keras.layers.BatchNormalization(), keras.layers.Dense(100, activation=&quot;relu&quot;), keras.layers.BatchNormalization(), keras.layers.Dense(10, activation=&quot;softmax&quot;) ]) . model.summary() . Model: &#34;sequential_3&#34; _________________________________________________________________ Layer (type) Output Shape Param # ================================================================= flatten_3 (Flatten) (None, 784) 0 _________________________________________________________________ batch_normalization_v2 (Batc (None, 784) 3136 _________________________________________________________________ dense_210 (Dense) (None, 300) 235500 _________________________________________________________________ batch_normalization_v2_1 (Ba (None, 300) 1200 _________________________________________________________________ dense_211 (Dense) (None, 100) 30100 _________________________________________________________________ batch_normalization_v2_2 (Ba (None, 100) 400 _________________________________________________________________ dense_212 (Dense) (None, 10) 1010 ================================================================= Total params: 271,346 Trainable params: 268,978 Non-trainable params: 2,368 _________________________________________________________________ . bn1 = model.layers[1] [(var.name, var.trainable) for var in bn1.variables] . [(&#39;batch_normalization_v2/gamma:0&#39;, True), (&#39;batch_normalization_v2/beta:0&#39;, True), (&#39;batch_
…
: 0.1355 - accuracy: 0.9900 - val_loss: 0.1558 - val_accuracy: 0.9706 Epoch 19/20 200/200 [==============================] - 0s 306us/sample - loss: 0.1288 - accuracy: 0.9900 - val_loss: 0.1505 - val_accuracy: 0.9706 Epoch 20/20 200/200 [==============================] - 0s 312us/sample - loss: 0.1230 - accuracy: 0.9900 - val_loss: 0.1454 - val_accuracy: 0.9716 . model.summary() . Model: &#34;sequential_4&#34; _________________________________________________________________ Layer (type) Output Shape Param # ================================================================= flatten_4 (Flatten) (None, 784) 0 _________________________________________________________________ batch_normalization_v2_3 (Ba (None, 784) 3136 _________________________________________________________________ dense_213 (Dense) (None, 300) 235500 _________________________________________________________________ batch_normalization_v2_4 (Ba (None, 300) 1200 _________________________________________________________________ activation (Activation) (None, 300) 0 _________________________________________________________________ dense_214 (Dense) (None, 100) 30100 _________________________________________________________________ activation_1 (Activation) (None, 100) 0 _________________________________________________________________ batch_normalization_v2_5 (Ba (None, 100) 400 _________________________________________________________________ dense_215 (Dense) (None, 10) 1010 ================================================================= Total params: 271,346 Trainable params: 268,978 Non-trainable params: 2,368 _________________________________________________________________ . model_A = keras.models.load_model(&quot;my_model_A.h5&quot;) model_B_on_A = keras.models.Sequential(model_A.layers[:-1]) model_B_on_A.add(keras.layers.Dense(1, activation=&quot;sigmoid&quot
…
: return super().call(inputs, training=True) class MCAlphaDropout(keras.layers.AlphaDropout): def call(self, inputs): return super().call(inputs, training=True) . tf.random.set_seed(42) np.random.seed(42) . mc_model = keras.models.Sequential([ MCAlphaDropout(layer.rate) if isinstance(layer, keras.layers.AlphaDropout) else layer for layer in model.layers ]) . mc_model.summary() . Model: &#34;sequential_36&#34; _________________________________________________________________ Layer (type) Output Shape Param # ================================================================= flatten_33 (Flatten) (None, 784) 0 _________________________________________________________________ mc_alpha_dropout_3 (MCAlphaD (None, 784) 0 _________________________________________________________________ dense_311 (Dense) (None, 300) 235500 _________________________________________________________________ mc_alpha_dropout_4 (MCAlphaD (None, 300) 0 _________________________________________________________________ dense_312 (Dense) (None, 100) 30100 _________________________________________________________________ mc_alpha_dropout_5 (MCAlphaD (None, 100) 0 _________________________________________________________________ dense_313 (Dense) (None, 10) 1010 ================================================================= Total params: 266,610 Trainable params: 266,610 Non-trainable params: 0 _________________________________________________________________ . optimizer = keras.optimizers.SGD(lr=0.01, momentum=0.9, nesterov=True) mc_model.compile(loss=&quot;sparse_categorical_crossentropy&quot;, optimizer=optimizer, metrics=[&quot;accuracy&quot;]) . 
…
2, padding=&quot;SAME&quot;)) prev_filters = 64 for filters in [64] * 3 + [128] * 4 + [256] * 6 + [512] * 3: strides = 1 if filters == prev_filters else 2 model.add(ResidualUnit(filters, strides=strides)) prev_filters = filters model.add(keras.layers.GlobalAvgPool2D()) model.add(keras.layers.Flatten()) model.add(keras.layers.Dense(10, activation=&quot;softmax&quot;)) . model.summary() . Model: &#34;sequential&#34; _________________________________________________________________ Layer (type) Output Shape Param # ================================================================= conv2d (Conv2D) (None, 112, 112, 64) 9408 _________________________________________________________________ batch_normalization (BatchNo (None, 112, 112, 64) 256 _________________________________________________________________ activation (Activation) (None, 112, 112, 64) 0 _________________________________________________________________ max_pooling2d (MaxPooling2D) (None, 56, 56, 64) 0 _________________________________________________________________ residual_unit (ResidualUnit) (None, 56, 56, 64) 74240 _________________________________________________________________ residual_unit_1 (ResidualUni (None, 56, 56, 64) 74240 _________________________________________________________________ residual_unit_2 (ResidualUni (None, 56, 56, 64) 74240 _________________________________________________________________ residual_unit_3 (ResidualUni (None, 28, 28, 128) 230912 _________________________________________________________________ residual_unit_4 (ResidualUni (None, 28, 28, 128) 295936 _________________________________________________________________ residual_unit_5 (ResidualUni (None, 28, 28, 128) 295936 _________________________________________________________________ residual_unit_6 (ResidualUni (None, 28, 28, 128) 295936 _________________________________________________________________ residual_unit_7 (ResidualUni (None, 14, 14, 256) 920576 _________________________________________________________________ residual_unit_8 (ResidualUni (None, 14, 14, 256) 1181696 _________________________________________________________________ residual_unit_9 (ResidualUni (None, 14, 14, 256) 1181696 _________________________________________________________________ residual_unit_10 (ResidualUn (None, 14, 14, 256) 1181696 _________________________________________________________________ residual_unit_11 (ResidualUn (None, 14, 14, 256) 1181696 _________________________________________________________________ residual_unit_12 (ResidualUn (None, 14, 14, 256) 1181696 _________________________________________________________________ residual_unit_13 (ResidualUn (None, 7, 7, 512) 3676160 _________________________________________________________________ residual_unit_14 (ResidualUn (None, 7, 7, 512) 4722688 _________________________________________________________________ residual_unit_15 (ResidualUn (None, 7, 7, 512) 4722688 _________________________________________________________________ global_average_pooling2d (Gl (None, 512) 0 _________________________________________________________________ flatten (Flatten) (None, 512) 0 _________________________________________________________________ dense (Dense) (None, 10) 5130 ================================================================= Total params: 21,306,826 Trainable params: 21,289,802 Non-trainable params: 17,024 _________________________________________________________________ . Using a Pretrained Model . model = keras.applications.resnet50.ResNet50(weights=&quot;imagenet&quot;) . images_resized = tf.image.resize(images, [224, 224]) plot_color_image(images_r
…
s: 0.2720 - val_accuracy: 0.5059 Epoch 4/5 55000/55000 [==============================] - 39s 707us/sample - loss: 0.2682 - accuracy: 0.5094 - val_loss: 0.2685 - val_accuracy: 0.5063 Epoch 5/5 55000/55000 [==============================] - 39s 706us/sample - loss: 0.2665 - accuracy: 0.5095 - val_loss: 0.2671 - val_accuracy: 0.5066 . conv_encoder.summary() conv_decoder.summary() . Model: &#34;sequential_16&#34; _________________________________________________________________ Layer (type) Output Shape Param # ================================================================= reshape_3 (Reshape) (None, 28, 28, 1) 0 _________________________________________________________________ conv2d (Conv2D) (None, 28, 28, 16) 160 _________________________________________________________________ max_pooling2d (MaxPooling2D) (None, 14, 14, 16) 0 _________________________________________________________________ conv2d_1 (Conv2D) (None, 14, 14, 32) 4640 _________________________________________________________________ max_pooling2d_1 (MaxPooling2 (None, 7, 7, 32) 0 _________________________________________________________________ conv2d_2 (Conv2D) (None, 7, 7, 64) 18496 _________________________________________________________________ max_pooling2d_2 (MaxPooling2 (None, 3, 3, 64) 0 ================================================================= Total params: 23,296 Trainable params: 23,296 Non-trainable params: 0 _________________________________________________________________ Model: &#34;sequential_17&#34; _________________________________________________________________ Layer (type) Output Shape Param # ================================================================= conv2d_transpose (Conv2DTran (None, 7, 7, 32) 18464 _________________________________________________________________ conv2d_transpose_1 (Conv2DTr (None, 14, 14, 16) 4624 _________________________________________________________________ conv2d_transpose_2 (Conv2DTr (None, 28, 28, 1) 145 _________________________________________________________________ reshape_4 (Reshape) (None, 28, 28) 0 ================================================================= Total params: 23,233 Trainable params: 23,233 Non-trainable params: 0 _________________________________________________________________ . show_reconstructions(conv_ae) plt.show() . Recurrent Autoencoders . recurrent_encoder = keras.models.Sequential([ keras.layers.LSTM(100, return_sequences=True, input_shape=[28, 28]), keras.layers
…
